labs/img_classification/cifar_linear_model.pth (torch, 124506 bytes, 2 tensors)

fc.weight f4 [10, 3072]
-0.0010386307 0.0030997226 0.011307408 -0.0022646326 -0.0074787308 0.00754524 -0.0048506437 -0.0051891385
-0.014823801 0.008542296 0.004702529 0.0053812796 -0.010291582 -0.0010178196 0.012918545 0.009138306
0.001348636 0.008764987 -0.007945332 0.0048715062 -0.0050092777 -0.0089606 0.00141707 -0.0033525662
0.008301555 0.0044719335 0.0005455756 0.006646071 0.008473358 -0.007055329 -0.01714202 0.0030570142
0.013022768 -0.010969832 0.0032225978 -0.0078052026 6.705971e-05 -0.0074615483 0.014391081 0.007767944
0.004866482 6.71651e-05 0.008984054 0.016319659 0.010684441 0.003638551 0.00914915 0.0027415955
0.013982946 -0.003927887 -0.017544398 0.017396899 -0.01522963 0.010060441 -0.0100265825 -0.0112569695
0.0023537574 -0.017939094 -0.0036884753 -0.008313907 0.017448558 -0.006297829 0.009231648 0.005059809
0.01693139 0.014464555 0.008177927 -0.0139391925 0.006943176 -0.017495556 -0.0058809896 -0.0011771206
-0.014111654 -0.013119249 0.011591913 0.011073355 -0.0046020374 -0.0027018401 0.014431901 -0.012557146
-0.018000333 -0.0055590216 -0.013603524 0.0014815617 0.01661036 -0.014166225 -0.013731053 0.0057159415
0.010653902 -0.0010902843 0.016679445 -0.011940056 -0.005596796 -0.01153025 0.0038409326 -0.00021211809
-0.008027311 0.006933164 -0.004988884 0.0051674326 0.01726648 0.0012798341 0.010399305 -0.0042945463
0.009868514 -0.00074987765 0.010125251 0.0044464874 -0.011626107 -0.009210346 0.012610596 -0.01650065
-0.009448657 -0.01057801 0.011054358 0.00027991337 0.00015116663 0.017645992 0.0049677566 0.008355508
-0.0060642613 0.0158533 0.008122632 0.014936375 -0.009254855 -0.00015366156 -0.015675517 0.010012729
-0.017400773 -0.015940612 0.010822306 -0.0032077057 0.002914926 0.010883897 0.012548339 -0.0045153988
0.009312242 -0.001584802 0.007327164 -0.0025648624 0.013095162 0.011820186 0.012824428 -0.007473743
-0.0037580603 0.013577271 0.005084846 -0.017720861 0.013210488 -0.013801664 0.0075360197 0.010560303
-0.004724882 -0.013757352 -0.0120102605 0.0068831043 0.007913663 -0.008656254 0.014449308 0.015501848
-0.00040439292 -0.012030457 -0.0021735807 -0.015245028 -0.0081863925 0.014501523 0.012513601 -0.0025728052
0.015912594 0.014236405 -0.011623728 -0.015927805 0.012743229 0.016396886 0.0054618786 -0.013269075
0.0039736843 0.013188093 -0.007873993 0.012102788 -0.011712055 0.005114144 0.0076633706 -0.005866102
-0.01695829 -0.012359828 0.013321237 -0.009742649 -0.013399112 -0.006906724 0.00701991 -0.0008863113
0.004997887 -0.015030686 0.0048145363 -0.009181392 -0.008144457 -0.00059143914 -0.015294507 0.006506607
0.009168064 -0.0063561588 -0.01287509 0.0035278732 -0.016278341 0.010387316 0.010312081 -0.014872916
-0.0020466063 -0.013511765 0.0028969154 -0.0035746489 -0.011821399 0.017484881 -0.003158706 0.0110573545
-0.0101345545 0.0014026123 0.0022207133 0.0155711 0.013947261 -0.0143090505 -0.006934252 -0.002523438
0.0025482131 -0.0063467515 -0.017485587 -0.0008753681 0.013468905 -0.01417249 0.0005484533 -0.0062092766
-0.010663787 0.00723642 -0.011770486 0.011491016 -0.013897441 0.017005783 0.0073174834 0.0025136434
0.014833673 -0.007882206 -0.002195992 0.0030424728 0.007863431 0.0075549292 0.0016879586 -0.0066275015
0.0127176065 0.01579525 -0.012272503 0.007776184 0.005688558 0.009278241 -0.0034244263 0.008883474
00000000: aa22 88ba b724 4b3b b542 393c 3b6a 14bb
00000010: 2410 f5bb 103e f73b 26f2 9ebb a609 aabb
00000020: 87df 72bc fcf4 0b3c ac17 9a3b 7255 b03b
00000030: 069e 28bc 5c68 85ba 4ea8 533c d5b8 153c
00000040: b7c4 b03a 059b 0f3c 232d 02bc 28a1 9f3b
00000050: de24 a4bb 7bcf 12bc fbbc b93a bab6 5bbb
00000060: 3f03 083c 4c89 923b f504 0f3a 49c7 d93b
00000070: d7d3 0a3c 6430 e7bb 6c6d 8cbc 3058 483b
00000080: 735d 553c cfba 33bc 3832 533b c9c2 ffbb
00000090: 68a2 8c38 0180 f4bb 92c8 6b3c 3d8a fe3b
000000a0: 0377 9f3b fdda 8c38 db31 133c ceb0 853c
000000b0: cb0d 2f3c c274 6e3b 51e6 153c 57ac 333b
000000c0: ba18 653c 81b5 80bb 45b9 8fbc f183 8e3c
000000d0: b385 79bc 8cd4 243c 8946 24bc 276f 38bc
000000e0: 7f41 1a3b 02f5 92bc 59ba 71bb 0e37 08bc
000000f0: 47f0 8e3c 055e cebb 5740 173c c1cc a53b
00000100: b3b3 8a3c befc 6c3c b6fc 053c 3661 64bc
00000110: 9583 e33b d752 8fbc 51b5 c0bb 9d49 9aba
00000120: 9134 67bc 1ef2 56bc 02ec 3d3c 046d 353c
00000130: b0cc 96bb 5b11 31bb c873 6c3c 7dbc 4dbc
00000140: 6f75 93bc 7428 b6bb 51e1 5ebc f630 c23a
00000150: 7312 883c 7419 68bc 36f8 60bc cb4c bb3b
00000160: b48d 2e3c dfe7 8eba 55a3 883c 3aa0 43bc
00000170: 5465 b7bb 60e9 3cbc 28b8 7b3b 046c 5eb9
00000180: fc84 03bc 982f e33b cb79 a3bb 9153 a93b
00000190: 6f72 8d3c 1bc0 a73a d961 2a3c 44b9 8cbb
000001a0: 8caf 213c 7093 44ba 61e4 253c d7b3 913b
000001b0: 6d7b 3ebc fee6 16bc ac9c 4e3c 5f2c 87bc
000001c0: 8ace 1abc 644f 2dbc 571d 353c 56c1 9239
000001d0: 7c82 1e39 548e 903c 90c8 a23b 8ae5 083c
000001e0: b6b6 c6bb c8de 813c ca14 053c b3b7 743c
000001f0: ada1 17bc 3620 21b9 f169 80bc 6e0c 243c
00000200: 118c 8ebc e395 82bc 0b50 313c 5f38 52bb
00000210: 5808 3f3b 5f52 323c 8c97 4d3c e9f5 93bb
00000220: 6092 183c 22b9 cfba b518 f03b 4017 28bb
00000230: 178d 563c 74a9 413c 8d1d 523c 4de6 f4bb
00000240: ca49 76bb 3473 5e3c c89e a63b 572b 91bc
00000250: cd70 583c 6020 62bc b7f0 f63b 1f05 2d3c
00000260: 2fd3 9abb 8466 61bc afc6 44bc aa8b e13b
00000270: 4fa8 013c f6d2 0dbc cabc 6c3c 77fb 7d3c
00000280: b304 d4b9 651b 45bc a272 0ebb 48c6 79bc
00000290: 3820 06bc cc97 6d3c d905 4d3c 829c 28bb
000002a0: 215b 823c cf3f 693c 7371 3ebc 077b 82bc
000002b0: fac8 503c c352 863c 8ff9 b23b 8966 59bc
000002c0: ae35 823b df12 583c ec01 01bc c64a 463c
000002d0: ebe3 3fbc 8d94 a73b 031d fb3b 6e38 c0bb
000002e0: 1dec 8abc e080 4abc 5141 5a3c a29f 1fbc
000002f0: f387 5bbc cd51 e2bb 4607 e63b 5857 68ba
00000300: 51c5 a33b 4443 76bc 42c3 9d3b 8d6d 16bc
00000310: 5470 05bc cf0a 1bba d095 7abc 6035 d53b
00000320: a635 163c 5347 d0bb 0bf2 52bc e433 673b
00000330: 285a 85bc 902f 2a3c 01f4 283c 88ad 73bc
00000340: 5b20 06bb 7360 5dbc 2dda 3d3b a844 6abb
00000350: 8bae 41bc 743c 8f3c 4b02 4fbb e829 353c
00000360: 670b 26bc dcd7 b73a 6389 113b ed1d 7f3c
00000370: 0d83 643c 8270 6abc b938 e3bb 4460 25bb
00000380: ecff 263b 69f8 cfbb ef3d 8fbc f578 65ba
00000390: afac 5c3c bb33 68bc 14c6 0f3a 3077 cbbb
000003a0: 2ab7 2ebc 7e1f ed3b ffd8 40bc d044 3c3c
000003b0: 18b2 63bc b64f 8b3c 80c7 ef3b f0bb 243b
000003c0: ef08 733c 5e24 01bc a2ea 0fbb 3964 473b
000003d0: 9fd5 003c 578f f73b 7e3e dd3a 832b d9bb
000003e0: 825d 503c 0a65 813c 9c12 49bc 5ccf fe3b
000003f0: 1567 ba3b c303 183c 576c 60bb fe8b 113c

fc.bias f4 [10]
-0.00015458856 -0.017988611 0.017843312 0.009705901 -0.013034058 0.01621442 -0.0014033264 -0.008080126
0.011943161 -0.0005952697
00000000: 0d19 22b9 da5c 93bc 232c 923c 8005 1f3c
00000010: cd8c 55bc 1ad4 843c d2ef b7ba 8162 04bc
00000020: 3fad 433c e00b 1cba
